{"backend": "tensorflow", "config": {"input_layers": [["input_1", 0, 0]], "output_layers": [["dense_1", 0, 0]], "name": "model_1", "layers": [{"config": {"batch_input_shape": [null, 224, 224, 3], "dtype": "float32", "name": "input_1", "sparse": false}, "name": "input_1", "inbound_nodes": [], "class_name": "InputLayer"}, {"config": {"activity_regularizer": null, "strides": [2, 2], "data_format": "channels_last", "name": "conv1", "bias_initializer": {"config": {}, "class_name": "Zeros"}, "bias_regularizer": null, "kernel_regularizer": null, "filters": 32, "activation": "linear", "kernel_initializer": {"config": {"scale": 1.0, "distribution": "uniform", "seed": null, "mode": "fan_avg"}, "class_name": "VarianceScaling"}, "padding": "same", "use_bias": false, "trainable": true, "dilation_rate": [1, 1], "bias_constraint": null, "kernel_size": [3, 3], "kernel_constraint": null}, "name": "conv1", "inbound_nodes": [[["input_1", 0, 0, {}]]], "class_name": "Conv2D"}, {"config": {"gamma_constraint": null, "gamma_regularizer": null, "gamma_initializer": {"config": {}, "class_name": "Ones"}, "center": true, "scale": true, "momentum": 0.99, "epsilon": 0.001, "name": "conv1_bn", "moving_variance_initializer": {"config": {}, "class_name": "Ones"}, "beta_regularizer": null, "axis": -1, "trainable": true, "beta_initializer": {"config": {}, "class_name": "Zeros"}, "beta_constraint": null, "moving_mean_initializer": {"config": {}, "class_name": "Zeros"}}, "name": "conv1_bn", "inbound_nodes": [[["conv1", 0, 0, {}]]], "class_name": "BatchNormalization"}, {"config": {"activation": "relu6", "trainable": true, "name": "conv1_relu"}, "name": "conv1_relu", "inbound_nodes": [[["conv1_bn", 0, 0, {}]]], "class_name": "Activation"}, {"config": {"strides": [1, 1], "depth_multiplier": 1, "data_format": "channels_last", "name": "conv_dw_1", "bias_initializer": {"config": {}, "class_name": "Zeros"}, "bias_regularizer": null, "depthwise_initializer": {"config": {"scale": 1.0, "distribution": "uniform", "seed": null, "mode": "fan_avg"}, "class_name": "VarianceScaling"}, "depthwise_constraint": null, "padding": "same", "activity_regularizer": null, "activation": "linear", "use_bias": false, "trainable": true, "dilation_rate": [1, 1], "bias_constraint": null, "kernel_size": [3, 3], "depthwise_regularizer": null}, "name": "conv_dw_1", "inbound_nodes": [[["conv1_relu", 0, 0, {}]]], "class_name": "DepthwiseConv2D"}, {"config": {"gamma_constraint": null, "gamma_regularizer": null, "gamma_initializer": {"config": {}, "class_name": "Ones"}, "center": true, "scale": true, "momentum": 0.99, "epsilon": 0.001, "name": "conv_dw_1_bn", "moving_variance_initializer": {"config": {}, "class_name": "Ones"}, "beta_regularizer": null, "axis": -1, "trainable": true, "beta_initializer": {"config": {}, "class_name": "Zeros"}, "beta_constraint": null, "moving_mean_initializer": {"config": {}, "class_name": "Zeros"}}, "name": "conv_dw_1_bn", "inbound_nodes": [[["conv_dw_1", 0, 0, {}]]], "class_name": "BatchNormalization"}, {"config": {"activation": "relu6", "trainable": true, "name": "conv_dw_1_relu"}, "name": "conv_dw_1_relu", "inbound_nodes": [[["conv_dw_1_bn", 0, 0, {}]]], "class_name": "Activation"}, {"config": {"activity_regularizer": null, "strides": [1, 1], "data_format": "channels_last", "name": "conv_pw_1", "bias_initializer": {"config": {}, "class_name": "Zeros"}, "bias_regularizer": null, "kernel_regularizer": null, "filters": 64, "activation": "linear", "kernel_initializer": {"config": {"scale": 1.0, "distribution": "uniform", "seed": null, "mode": "fan_avg"}, "class_name": "VarianceScaling"}, "padding": "same", "use_bias": false, "trainable": true, "dilation_rate": [1, 1], "bias_constraint": null, "kernel_size": [1, 1], "kernel_constraint": null}, "name": "conv_pw_1", "inbound_nodes": [[["conv_dw_1_relu", 0, 0, {}]]], "class_name": "Conv2D"}, {"config": {"gamma_constraint": null, "gamma_regularizer": null, "gamma_initializer": {"config": {}, "class_name": "Ones"}, "center": true, "scale": true, "momentum": 0.99, "epsilon": 0.001, "name": "conv_pw_1_bn", "moving_variance_initializer": {"config": {}, "class_name": "Ones"}, "beta_regularizer": null, "axis": -1, "trainable": true, "beta_initializer": {"config": {}, "class_name": "Zeros"}, "beta_constraint": null, "moving_mean_initializer": {"config": {}, "class_name": "Zeros"}}, "name": "conv_pw_1_bn", "inbound_nodes": [[["conv_pw_1", 0, 0, {}]]], "class_name": "BatchNormalization"}, {"config": {"activation": "relu6", "trainable": true, "name": "conv_pw_1_relu"}, "name": "conv_pw_1_relu", "inbound_nodes": [[["conv_pw_1_bn", 0, 0, {}]]], "class_name": "Activation"}, {"config": {"strides": [2, 2], "depth_multiplier": 1, "data_format": "channels_last", "name": "conv_dw_2", "bias_initializer": {"config": {}, "class_name": "Zeros"}, "bias_regularizer": null, "depthwise_initializer": {"config": {"scale": 1.0, "distribution": "uniform", "seed": null, "mode": "fan_avg"}, "class_name": "VarianceScaling"}, "depthwise_constraint": null, "padding": "same", "activity_regularizer": null, "activation": "linear", "use_bias": false, "trainable": true, "dilation_rate": [1, 1], "bias_constraint": null, "kernel_size": [3, 3], "depthwise_regularizer": null}, "name": "conv_dw_2", "inbound_nodes": [[["conv_pw_1_relu", 0, 0, {}]]], "class_name": "DepthwiseConv2D"}, {"config": {"gamma_constraint": null, "gamma_regularizer": null, "gamma_initializer": {"config": {}, "class_name": "Ones"}, "center": true, "scale": true, "momentum": 0.99, "epsilon": 0.001, "name": "conv_dw_2_bn", "moving_variance_initializer": {"config": {}, "class_name": "Ones"}, "beta_regularizer": null, "axis": -1, "trainable": true, "beta_initializer": {"config": {}, "class_name": "Zeros"}, "beta_constraint": null, "moving_mean_initializer": {"config": {}, "class_name": "Zeros"}}, "name": "conv_dw_2_bn", "inbound_nodes": [[["conv_dw_2", 0, 0, {}]]], "class_name": "BatchNormalization"}, {"config": {"activation": "relu6", "trainable": true, "name": "conv_dw_2_relu"}, "name": "conv_dw_2_relu", "inbound_nodes": [[["conv_dw_2_bn", 0, 0, {}]]], "class_name": "Activation"}, {"config": {"activity_regularizer": null, "strides": [1, 1], "data_format": "channels_last", "name": "conv_pw_2", "bias_initializer": {"config": {}, "class_name": "Zeros"}, "bias_regularizer": null, "kernel_regularizer": null, "filters": 128, "activation": "linear", "kernel_initializer": {"config": {"scale": 1.0, "distribution": "uniform", "seed": null, "mode": "fan_avg"}, "class_name": "VarianceScaling"}, "padding": "same", "use_bias": false, "trainable": true, "dilation_rate": [1, 1], "bias_constraint": null, "kernel_size": [1, 1], "kernel_constraint": null}, "name": "conv_pw_2", "inbound_nodes": [[["conv_dw_2_relu", 0, 0, {}]]], "class_name": "Conv2D"}, {"config": {"gamma_constraint": null, "gamma_regularizer": null, "gamma_initializer": {"config": {}, "class_name": "Ones"}, "center": true, "scale": true, "momentum": 0.99, "epsilon": 0.001, "name": "conv_pw_2_bn", "moving_variance_initializer": {"config": {}, "class_name": "Ones"}, "beta_regularizer": null, "axis": -1, "trainable": true, "beta_initializer": {"config": {}, "class_name": "Zeros"}, "beta_constraint": null, "moving_mean_initializer": {"config": {}, "class_name": "Zeros"}}, "name": "conv_pw_2_bn", "inbound_nodes": [[["conv_pw_2", 0, 0, {}]]], "class_name": "BatchNormalization"}, {"config": {"activation": "relu6", "trainable": true, "name": "conv_pw_2_relu"}, "name": "conv_pw_2_relu", "inbound_nodes": [[["conv_pw_2_bn", 0, 0, {}]]], "class_name": "Activation"}, {"config": {"strides": [1, 1], "depth_multiplier": 1, "data_format": "channels_last", "name": "conv_dw_3", "bias_initializer": {"config": {}, "class_name": "Zeros"}, "bias_regularizer": null, "depthwise_initializer": {"config": {"scale": 1.0, "distribution": "uniform", "seed": null, "mode": "fan_avg"}, "class_name": "VarianceScaling"}, "depthwise_constraint": null, "padding": "same", "activity_regularizer": null, "activation": "linear", "use_bias": false, "trainable": true, "dilation_rate": [1, 1], "bias_constraint": null, "kernel_size": [3, 3], "depthwise_regularizer": null}, "name": "conv_dw_3", "inbound_nodes": [[["conv_pw_2_relu", 0, 0, {}]]], "class_name": "DepthwiseConv2D"}, {"config": {"gamma_constraint": null, "gamma_regularizer": null, "gamma_initializer": {"config": {}, "class_name": "Ones"}, "center": true, "scale": true, "momentum": 0.99, "epsilon": 0.001, "name": "conv_dw_3_bn", "moving_variance_initializer": {"config": {}, "class_name": "Ones"}, "beta_regularizer": null, "axis": -1, "trainable": true, "beta_initializer": {"config": {}, "class_name": "Zeros"}, "beta_constraint": null, "moving_mean_initializer": {"config": {}, "class_name": "Zeros"}}, "name": "conv_dw_3_bn", "inbound_nodes": [[["conv_dw_3", 0, 0, {}]]], "class_name": "BatchNormalization"}, {"config": {"activation": "relu6", "trainable": true, "name": "conv_dw_3_relu"}, "name": "conv_dw_3_relu", "inbound_nodes": [[["conv_dw_3_bn", 0, 0, {}]]], "class_name": "Activation"}, {"config": {"activity_regularizer": null, "strides": [1, 1], "data_format": "channels_last", "name": "conv_pw_3", "bias_initializer": {"config": {}, "class_name": "Zeros"}, "bias_regularizer": null, "kernel_regularizer": null, "filters": 128, "activation": "linear", "kernel_initializer": {"config": {"scale": 1.0, "distribution": "uniform", "seed": null, "mode": "fan_avg"}, "class_name": "VarianceScaling"}, "padding": "same", "use_bias": false, "trainable": true, "dilation_rate": [1, 1], "bias_constraint": null, "kernel_size": [1, 1], "kernel_constraint": null}, "name": "conv_pw_3", "inbound_nodes": [[["conv_dw_3_relu", 0, 0, {}]]], "class_name": "Conv2D"}, {"config": {"gamma_constraint": null, "gamma_regularizer": null, "gamma_initializer": {"config": {}, "class_name": "Ones"}, "center": true, "scale": true, "momentum": 0.99, "epsilon": 0.001, "name": "conv_pw_3_bn", "moving_variance_initializer": {"config": {}, "class_name": "Ones"}, "beta_regularizer": null, "axis": -1, "trainable": true, "beta_initializer": {"config": {}, "class_name": "Zeros"}, "beta_constraint": null, "moving_mean_initializer": {"config": {}, "class_name": "Zeros"}}, "name": "conv_pw_3_bn", "inbound_nodes": [[["conv_pw_3", 0, 0, {}]]], "class_name": "BatchNormalization"}, {"config": {"activation": "relu6", "trainable": true, "name": "conv_pw_3_relu"}, "name": "conv_pw_3_relu", "inbound_nodes": [[["conv_pw_3_bn", 0, 0, {}]]], "class_name": "Activation"}, {"config": {"strides": [2, 2], "depth_multiplier": 1, "data_format": "channels_last", "name": "conv_dw_4", "bias_initializer": {"config": {}, "class_name": "Zeros"}, "bias_regularizer": null, "depthwise_initializer": {"config": {"scale": 1.0, "distribution": "uniform", "seed": null, "mode": "fan_avg"}, "class_name": "VarianceScaling"}, "depthwise_constraint": null, "padding": "same", "activity_regularizer": null, "activation": "linear", "use_bias": false, "trainable": true, "dilation_rate": [1, 1], "bias_constraint": null, "kernel_size": [3, 3], "depthwise_regularizer": null}, "name": "conv_dw_4", "inbound_nodes": [[["conv_pw_3_relu", 0, 0, {}]]], "class_name": "DepthwiseConv2D"}, {"config": {"gamma_constraint": null, "gamma_regularizer": null, "gamma_initializer": {"config": {}, "class_name": "Ones"}, "center": true, "scale": true, "momentum": 0.99, "epsilon": 0.001, "name": "conv_dw_4_bn", "moving_variance_initializer": {"config": {}, "class_name": "Ones"}, "beta_regularizer": null, "axis": -1, "trainable": true, "beta_initializer": {"config": {}, "class_name": "Zeros"}, "beta_constraint": null, "moving_mean_initializer": {"config": {}, "class_name": "Zeros"}}, "name": "conv_dw_4_bn", "inbound_nodes": [[["conv_dw_4", 0, 0, {}]]], "class_name": "BatchNormalization"}, {"config": {"activation": "relu6", "trainable": true, "name": "conv_dw_4_relu"}, "name": "conv_dw_4_relu", "inbound_nodes": [[["conv_dw_4_bn", 0, 0, {}]]], "class_name": "Activation"}, {"config": {"activity_regularizer": null, "strides": [1, 1], "data_format": "channels_last", "name": "conv_pw_4", "bias_initializer": {"config": {}, "class_name": "Zeros"}, "bias_regularizer": null, "kernel_regularizer": null, "filters": 256, "activation": "linear", "kernel_initializer": {"config": {"scale": 1.0, "distribution": "uniform", "seed": null, "mode": "fan_avg"}, "class_name": "VarianceScaling"}, "padding": "same", "use_bias": false, "trainable": true, "dilation_rate": [1, 1], "bias_constraint": null, "kernel_size": [1, 1], "kernel_constraint": null}, "name": "conv_pw_4", "inbound_nodes": [[["conv_dw_4_relu", 0, 0, {}]]], "class_name": "Conv2D"}, {"config": {"gamma_constraint": null, "gamma_regularizer": null, "gamma_initializer": {"config": {}, "class_name": "Ones"}, "center": true, "scale": true, "momentum": 0.99, "epsilon": 0.001, "name": "conv_pw_4_bn", "moving_variance_initializer": {"config": {}, "class_name": "Ones"}, "beta_regularizer": null, "axis": -1, "trainable": true, "beta_initializer": {"config": {}, "class_name": "Zeros"}, "beta_constraint": null, "moving_mean_initializer": {"config": {}, "class_name": "Zeros"}}, "name": "conv_pw_4_bn", "inbound_nodes": [[["conv_pw_4", 0, 0, {}]]], "class_name": "BatchNormalization"}, {"config": {"activation": "relu6", "trainable": true, "name": "conv_pw_4_relu"}, "name": "conv_pw_4_relu", "inbound_nodes": [[["conv_pw_4_bn", 0, 0, {}]]], "class_name": "Activation"}, {"config": {"strides": [1, 1], "depth_multiplier": 1, "data_format": "channels_last", "name": "conv_dw_5", "bias_initializer": {"config": {}, "class_name": "Zeros"}, "bias_regularizer": null, "depthwise_initializer": {"config": {"scale": 1.0, "distribution": "uniform", "seed": null, "mode": "fan_avg"}, "class_name": "VarianceScaling"}, "depthwise_constraint": null, "padding": "same", "activity_regularizer": null, "activation": "linear", "use_bias": false, "trainable": true, "dilation_rate": [1, 1], "bias_constraint": null, "kernel_size": [3, 3], "depthwise_regularizer": null}, "name": "conv_dw_5", "inbound_nodes": [[["conv_pw_4_relu", 0, 0, {}]]], "class_name": "DepthwiseConv2D"}, {"config": {"gamma_constraint": null, "gamma_regularizer": null, "gamma_initializer": {"config": {}, "class_name": "Ones"}, "center": true, "scale": true, "momentum": 0.99, "epsilon": 0.001, "name": "conv_dw_5_bn", "moving_variance_initializer": {"config": {}, "class_name": "Ones"}, "beta_regularizer": null, "axis": -1, "trainable": true, "beta_initializer": {"config": {}, "class_name": "Zeros"}, "beta_constraint": null, "moving_mean_initializer": {"config": {}, "class_name": "Zeros"}}, "name": "conv_dw_5_bn", "inbound_nodes": [[["conv_dw_5", 0, 0, {}]]], "class_name": "BatchNormalization"}, {"config": {"activation": "relu6", "trainable": true, "name": "conv_dw_5_relu"}, "name": "conv_dw_5_relu", "inbound_nodes": [[["conv_dw_5_bn", 0, 0, {}]]], "class_name": "Activation"}, {"config": {"activity_regularizer": null, "strides": [1, 1], "data_format": "channels_last", "name": "conv_pw_5", "bias_initializer": {"config": {}, "class_name": "Zeros"}, "bias_regularizer": null, "kernel_regularizer": null, "filters": 256, "activation": "linear", "kernel_initializer": {"config": {"scale": 1.0, "distribution": "uniform", "seed": null, "mode": "fan_avg"}, "class_name": "VarianceScaling"}, "padding": "same", "use_bias": false, "trainable": true, "dilation_rate": [1, 1], "bias_constraint": null, "kernel_size": [1, 1], "kernel_constraint": null}, "name": "conv_pw_5", "inbound_nodes": [[["conv_dw_5_relu", 0, 0, {}]]], "class_name": "Conv2D"}, {"config": {"gamma_constraint": null, "gamma_regularizer": null, "gamma_initializer": {"config": {}, "class_name": "Ones"}, "center": true, "scale": true, "momentum": 0.99, "epsilon": 0.001, "name": "conv_pw_5_bn", "moving_variance_initializer": {"config": {}, "class_name": "Ones"}, "beta_regularizer": null, "axis": -1, "trainable": true, "beta_initializer": {"config": {}, "class_name": "Zeros"}, "beta_constraint": null, "moving_mean_initializer": {"config": {}, "class_name": "Zeros"}}, "name": "conv_pw_5_bn", "inbound_nodes": [[["conv_pw_5", 0, 0, {}]]], "class_name": "BatchNormalization"}, {"config": {"activation": "relu6", "trainable": true, "name": "conv_pw_5_relu"}, "name": "conv_pw_5_relu", "inbound_nodes": [[["conv_pw_5_bn", 0, 0, {}]]], "class_name": "Activation"}, {"config": {"strides": [2, 2], "depth_multiplier": 1, "data_format": "channels_last", "name": "conv_dw_6", "bias_initializer": {"config": {}, "class_name": "Zeros"}, "bias_regularizer": null, "depthwise_initializer": {"config": {"scale": 1.0, "distribution": "uniform", "seed": null, "mode": "fan_avg"}, "class_name": "VarianceScaling"}, "depthwise_constraint": null, "padding": "same", "activity_regularizer": null, "activation": "linear", "use_bias": false, "trainable": true, "dilation_rate": [1, 1], "bias_constraint": null, "kernel_size": [3, 3], "depthwise_regularizer": null}, "name": "conv_dw_6", "inbound_nodes": [[["conv_pw_5_relu", 0, 0, {}]]], "class_name": "DepthwiseConv2D"}, {"config": {"gamma_constraint": null, "gamma_regularizer": null, "gamma_initializer": {"config": {}, "class_name": "Ones"}, "center": true, "scale": true, "momentum": 0.99, "epsilon": 0.001, "name": "conv_dw_6_bn", "moving_variance_initializer": {"config": {}, "class_name": "Ones"}, "beta_regularizer": null, "axis": -1, "trainable": true, "beta_initializer": {"config": {}, "class_name": "Zeros"}, "beta_constraint": null, "moving_mean_initializer": {"config": {}, "class_name": "Zeros"}}, "name": "conv_dw_6_bn", "inbound_nodes": [[["conv_dw_6", 0, 0, {}]]], "class_name": "BatchNormalization"}, {"config": {"activation": "relu6", "trainable": true, "name": "conv_dw_6_relu"}, "name": "conv_dw_6_relu", "inbound_nodes": [[["conv_dw_6_bn", 0, 0, {}]]], "class_name": "Activation"}, {"config": {"activity_regularizer": null, "strides": [1, 1], "data_format": "channels_last", "name": "conv_pw_6", "bias_initializer": {"config": {}, "class_name": "Zeros"}, "bias_regularizer": null, "kernel_regularizer": null, "filters": 512, "activation": "linear", "kernel_initializer": {"config": {"scale": 1.0, "distribution": "uniform", "seed": null, "mode": "fan_avg"}, "class_name": "VarianceScaling"}, "padding": "same", "use_bias": false, "trainable": true, "dilation_rate": [1, 1], "bias_constraint": null, "kernel_size": [1, 1], "kernel_constraint": null}, "name": "conv_pw_6", "inbound_nodes": [[["conv_dw_6_relu", 0, 0, {}]]], "class_name": "Conv2D"}, {"config": {"gamma_constraint": null, "gamma_regularizer": null, "gamma_initializer": {"config": {}, "class_name": "Ones"}, "center": true, "scale": true, "momentum": 0.99, "epsilon": 0.001, "name": "conv_pw_6_bn", "moving_variance_initializer": {"config": {}, "class_name": "Ones"}, "beta_regularizer": null, "axis": -1, "trainable": true, "beta_initializer": {"config": {}, "class_name": "Zeros"}, "beta_constraint": null, "moving_mean_initializer": {"config": {}, "class_name": "Zeros"}}, "name": "conv_pw_6_bn", "inbound_nodes": [[["conv_pw_6", 0, 0, {}]]], "class_name": "BatchNormalization"}, {"config": {"activation": "relu6", "trainable": true, "name": "conv_pw_6_relu"}, "name": "conv_pw_6_relu", "inbound_nodes": [[["conv_pw_6_bn", 0, 0, {}]]], "class_name": "Activation"}, {"config": {"strides": [1, 1], "depth_multiplier": 1, "data_format": "channels_last", "name": "conv_dw_7", "bias_initializer": {"config": {}, "class_name": "Zeros"}, "bias_regularizer": null, "depthwise_initializer": {"config": {"scale": 1.0, "distribution": "uniform", "seed": null, "mode": "fan_avg"}, "class_name": "VarianceScaling"}, "depthwise_constraint": null, "padding": "same", "activity_regularizer": null, "activation": "linear", "use_bias": false, "trainable": true, "dilation_rate": [1, 1], "bias_constraint": null, "kernel_size": [3, 3], "depthwise_regularizer": null}, "name": "conv_dw_7", "inbound_nodes": [[["conv_pw_6_relu", 0, 0, {}]]], "class_name": "DepthwiseConv2D"}, {"config": {"gamma_constraint": null, "gamma_regularizer": null, "gamma_initializer": {"config": {}, "class_name": "Ones"}, "center": true, "scale": true, "momentum": 0.99, "epsilon": 0.001, "name": "conv_dw_7_bn", "moving_variance_initializer": {"config": {}, "class_name": "Ones"}, "beta_regularizer": null, "axis": -1, "trainable": true, "beta_initializer": {"config": {}, "class_name": "Zeros"}, "beta_constraint": null, "moving_mean_initializer": {"config": {}, "class_name": "Zeros"}}, "name": "conv_dw_7_bn", "inbound_nodes": [[["conv_dw_7", 0, 0, {}]]], "class_name": "BatchNormalization"}, {"config": {"activation": "relu6", "trainable": true, "name": "conv_dw_7_relu"}, "name": "conv_dw_7_relu", "inbound_nodes": [[["conv_dw_7_bn", 0, 0, {}]]], "class_name": "Activation"}, {"config": {"activity_regularizer": null, "strides": [1, 1], "data_format": "channels_last", "name": "conv_pw_7", "bias_initializer": {"config": {}, "class_name": "Zeros"}, "bias_regularizer": null, "kernel_regularizer": null, "filters": 512, "activation": "linear", "kernel_initializer": {"config": {"scale": 1.0, "distribution": "uniform", "seed": null, "mode": "fan_avg"}, "class_name": "VarianceScaling"}, "padding": "same", "use_bias": false, "trainable": true, "dilation_rate": [1, 1], "bias_constraint": null, "kernel_size": [1, 1], "kernel_constraint": null}, "name": "conv_pw_7", "inbound_nodes": [[["conv_dw_7_relu", 0, 0, {}]]], "class_name": "Conv2D"}, {"config": {"gamma_constraint": null, "gamma_regularizer": null, "gamma_initializer": {"config": {}, "class_name": "Ones"}, "center": true, "scale": true, "momentum": 0.99, "epsilon": 0.001, "name": "conv_pw_7_bn", "moving_variance_initializer": {"config": {}, "class_name": "Ones"}, "beta_regularizer": null, "axis": -1, "trainable": true, "beta_initializer": {"config": {}, "class_name": "Zeros"}, "beta_constraint": null, "moving_mean_initializer": {"config": {}, "class_name": "Zeros"}}, "name": "conv_pw_7_bn", "inbound_nodes": [[["conv_pw_7", 0, 0, {}]]], "class_name": "BatchNormalization"}, {"config": {"activation": "relu6", "trainable": true, "name": "conv_pw_7_relu"}, "name": "conv_pw_7_relu", "inbound_nodes": [[["conv_pw_7_bn", 0, 0, {}]]], "class_name": "Activation"}, {"config": {"strides": [1, 1], "depth_multiplier": 1, "data_format": "channels_last", "name": "conv_dw_8", "bias_initializer": {"config": {}, "class_name": "Zeros"}, "bias_regularizer": null, "depthwise_initializer": {"config": {"scale": 1.0, "distribution": "uniform", "seed": null, "mode": "fan_avg"}, "class_name": "VarianceScaling"}, "depthwise_constraint": null, "padding": "same", "activity_regularizer": null, "activation": "linear", "use_bias": false, "trainable": true, "dilation_rate": [1, 1], "bias_constraint": null, "kernel_size": [3, 3], "depthwise_regularizer": null}, "name": "conv_dw_8", "inbound_nodes": [[["conv_pw_7_relu", 0, 0, {}]]], "class_name": "DepthwiseConv2D"}, {"config": {"gamma_constraint": null, "gamma_regularizer": null, "gamma_initializer": {"config": {}, "class_name": "Ones"}, "center": true, "scale": true, "momentum": 0.99, "epsilon": 0.001, "name": "conv_dw_8_bn", "moving_variance_initializer": {"config": {}, "class_name": "Ones"}, "beta_regularizer": null, "axis": -1, "trainable": true, "beta_initializer": {"config": {}, "class_name": "Zeros"}, "beta_constraint": null, "moving_mean_initializer": {"config": {}, "class_name": "Zeros"}}, "name": "conv_dw_8_bn", "inbound_nodes": [[["conv_dw_8", 0, 0, {}]]], "class_name": "BatchNormalization"}, {"config": {"activation": "relu6", "trainable": true, "name": "conv_dw_8_relu"}, "name": "conv_dw_8_relu", "inbound_nodes": [[["conv_dw_8_bn", 0, 0, {}]]], "class_name": "Activation"}, {"config": {"activity_regularizer": null, "strides": [1, 1], "data_format": "channels_last", "name": "conv_pw_8", "bias_initializer": {"config": {}, "class_name": "Zeros"}, "bias_regularizer": null, "kernel_regularizer": null, "filters": 512, "activation": "linear", "kernel_initializer": {"config": {"scale": 1.0, "distribution": "uniform", "seed": null, "mode": "fan_avg"}, "class_name": "VarianceScaling"}, "padding": "same", "use_bias": false, "trainable": true, "dilation_rate": [1, 1], "bias_constraint": null, "kernel_size": [1, 1], "kernel_constraint": null}, "name": "conv_pw_8", "inbound_nodes": [[["conv_dw_8_relu", 0, 0, {}]]], "class_name": "Conv2D"}, {"config": {"gamma_constraint": null, "gamma_regularizer": null, "gamma_initializer": {"config": {}, "class_name": "Ones"}, "center": true, "scale": true, "momentum": 0.99, "epsilon": 0.001, "name": "conv_pw_8_bn", "moving_variance_initializer": {"config": {}, "class_name": "Ones"}, "beta_regularizer": null, "axis": -1, "trainable": true, "beta_initializer": {"config": {}, "class_name": "Zeros"}, "beta_constraint": null, "moving_mean_initializer": {"config": {}, "class_name": "Zeros"}}, "name": "conv_pw_8_bn", "inbound_nodes": [[["conv_pw_8", 0, 0, {}]]], "class_name": "BatchNormalization"}, {"config": {"activation": "relu6", "trainable": true, "name": "conv_pw_8_relu"}, "name": "conv_pw_8_relu", "inbound_nodes": [[["conv_pw_8_bn", 0, 0, {}]]], "class_name": "Activation"}, {"config": {"strides": [1, 1], "depth_multiplier": 1, "data_format": "channels_last", "name": "conv_dw_9", "bias_initializer": {"config": {}, "class_name": "Zeros"}, "bias_regularizer": null, "depthwise_initializer": {"config": {"scale": 1.0, "distribution": "uniform", "seed": null, "mode": "fan_avg"}, "class_name": "VarianceScaling"}, "depthwise_constraint": null, "padding": "same", "activity_regularizer": null, "activation": "linear", "use_bias": false, "trainable": true, "dilation_rate": [1, 1], "bias_constraint": null, "kernel_size": [3, 3], "depthwise_regularizer": null}, "name": "conv_dw_9", "inbound_nodes": [[["conv_pw_8_relu", 0, 0, {}]]], "class_name": "DepthwiseConv2D"}, {"config": {"gamma_constraint": null, "gamma_regularizer": null, "gamma_initializer": {"config": {}, "class_name": "Ones"}, "center": true, "scale": true, "momentum": 0.99, "epsilon": 0.001, "name": "conv_dw_9_bn", "moving_variance_initializer": {"config": {}, "class_name": "Ones"}, "beta_regularizer": null, "axis": -1, "trainable": true, "beta_initializer": {"config": {}, "class_name": "Zeros"}, "beta_constraint": null, "moving_mean_initializer": {"config": {}, "class_name": "Zeros"}}, "name": "conv_dw_9_bn", "inbound_nodes": [[["conv_dw_9", 0, 0, {}]]], "class_name": "BatchNormalization"}, {"config": {"activation": "relu6", "trainable": true, "name": "conv_dw_9_relu"}, "name": "conv_dw_9_relu", "inbound_nodes": [[["conv_dw_9_bn", 0, 0, {}]]], "class_name": "Activation"}, {"config": {"activity_regularizer": null, "strides": [1, 1], "data_format": "channels_last", "name": "conv_pw_9", "bias_initializer": {"config": {}, "class_name": "Zeros"}, "bias_regularizer": null, "kernel_regularizer": null, "filters": 512, "activation": "linear", "kernel_initializer": {"config": {"scale": 1.0, "distribution": "uniform", "seed": null, "mode": "fan_avg"}, "class_name": "VarianceScaling"}, "padding": "same", "use_bias": false, "trainable": true, "dilation_rate": [1, 1], "bias_constraint": null, "kernel_size": [1, 1], "kernel_constraint": null}, "name": "conv_pw_9", "inbound_nodes": [[["conv_dw_9_relu", 0, 0, {}]]], "class_name": "Conv2D"}, {"config": {"gamma_constraint": null, "gamma_regularizer": null, "gamma_initializer": {"config": {}, "class_name": "Ones"}, "center": true, "scale": true, "momentum": 0.99, "epsilon": 0.001, "name": "conv_pw_9_bn", "moving_variance_initializer": {"config": {}, "class_name": "Ones"}, "beta_regularizer": null, "axis": -1, "trainable": true, "beta_initializer": {"config": {}, "class_name": "Zeros"}, "beta_constraint": null, "moving_mean_initializer": {"config": {}, "class_name": "Zeros"}}, "name": "conv_pw_9_bn", "inbound_nodes": [[["conv_pw_9", 0, 0, {}]]], "class_name": "BatchNormalization"}, {"config": {"activation": "relu6", "trainable": true, "name": "conv_pw_9_relu"}, "name": "conv_pw_9_relu", "inbound_nodes": [[["conv_pw_9_bn", 0, 0, {}]]], "class_name": "Activation"}, {"config": {"strides": [1, 1], "depth_multiplier": 1, "data_format": "channels_last", "name": "conv_dw_10", "bias_initializer": {"config": {}, "class_name": "Zeros"}, "bias_regularizer": null, "depthwise_initializer": {"config": {"scale": 1.0, "distribution": "uniform", "seed": null, "mode": "fan_avg"}, "class_name": "VarianceScaling"}, "depthwise_constraint": null, "padding": "same", "activity_regularizer": null, "activation": "linear", "use_bias": false, "trainable": true, "dilation_rate": [1, 1], "bias_constraint": null, "kernel_size": [3, 3], "depthwise_regularizer": null}, "name": "conv_dw_10", "inbound_nodes": [[["conv_pw_9_relu", 0, 0, {}]]], "class_name": "DepthwiseConv2D"}, {"config": {"gamma_constraint": null, "gamma_regularizer": null, "gamma_initializer": {"config": {}, "class_name": "Ones"}, "center": true, "scale": true, "momentum": 0.99, "epsilon": 0.001, "name": "conv_dw_10_bn", "moving_variance_initializer": {"config": {}, "class_name": "Ones"}, "beta_regularizer": null, "axis": -1, "trainable": true, "beta_initializer": {"config": {}, "class_name": "Zeros"}, "beta_constraint": null, "moving_mean_initializer": {"config": {}, "class_name": "Zeros"}}, "name": "conv_dw_10_bn", "inbound_nodes": [[["conv_dw_10", 0, 0, {}]]], "class_name": "BatchNormalization"}, {"config": {"activation": "relu6", "trainable": true, "name": "conv_dw_10_relu"}, "name": "conv_dw_10_relu", "inbound_nodes": [[["conv_dw_10_bn", 0, 0, {}]]], "class_name": "Activation"}, {"config": {"activity_regularizer": null, "strides": [1, 1], "data_format": "channels_last", "name": "conv_pw_10", "bias_initializer": {"config": {}, "class_name": "Zeros"}, "bias_regularizer": null, "kernel_regularizer": null, "filters": 512, "activation": "linear", "kernel_initializer": {"config": {"scale": 1.0, "distribution": "uniform", "seed": null, "mode": "fan_avg"}, "class_name": "VarianceScaling"}, "padding": "same", "use_bias": false, "trainable": true, "dilation_rate": [1, 1], "bias_constraint": null, "kernel_size": [1, 1], "kernel_constraint": null}, "name": "conv_pw_10", "inbound_nodes": [[["conv_dw_10_relu", 0, 0, {}]]], "class_name": "Conv2D"}, {"config": {"gamma_constraint": null, "gamma_regularizer": null, "gamma_initializer": {"config": {}, "class_name": "Ones"}, "center": true, "scale": true, "momentum": 0.99, "epsilon": 0.001, "name": "conv_pw_10_bn", "moving_variance_initializer": {"config": {}, "class_name": "Ones"}, "beta_regularizer": null, "axis": -1, "trainable": true, "beta_initializer": {"config": {}, "class_name": "Zeros"}, "beta_constraint": null, "moving_mean_initializer": {"config": {}, "class_name": "Zeros"}}, "name": "conv_pw_10_bn", "inbound_nodes": [[["conv_pw_10", 0, 0, {}]]], "class_name": "BatchNormalization"}, {"config": {"activation": "relu6", "trainable": true, "name": "conv_pw_10_relu"}, "name": "conv_pw_10_relu", "inbound_nodes": [[["conv_pw_10_bn", 0, 0, {}]]], "class_name": "Activation"}, {"config": {"strides": [1, 1], "depth_multiplier": 1, "data_format": "channels_last", "name": "conv_dw_11", "bias_initializer": {"config": {}, "class_name": "Zeros"}, "bias_regularizer": null, "depthwise_initializer": {"config": {"scale": 1.0, "distribution": "uniform", "seed": null, "mode": "fan_avg"}, "class_name": "VarianceScaling"}, "depthwise_constraint": null, "padding": "same", "activity_regularizer": null, "activation": "linear", "use_bias": false, "trainable": true, "dilation_rate": [1, 1], "bias_constraint": null, "kernel_size": [3, 3], "depthwise_regularizer": null}, "name": "conv_dw_11", "inbound_nodes": [[["conv_pw_10_relu", 0, 0, {}]]], "class_name": "DepthwiseConv2D"}, {"config": {"gamma_constraint": null, "gamma_regularizer": null, "gamma_initializer": {"config": {}, "class_name": "Ones"}, "center": true, "scale": true, "momentum": 0.99, "epsilon": 0.001, "name": "conv_dw_11_bn", "moving_variance_initializer": {"config": {}, "class_name": "Ones"}, "beta_regularizer": null, "axis": -1, "trainable": true, "beta_initializer": {"config": {}, "class_name": "Zeros"}, "beta_constraint": null, "moving_mean_initializer": {"config": {}, "class_name": "Zeros"}}, "name": "conv_dw_11_bn", "inbound_nodes": [[["conv_dw_11", 0, 0, {}]]], "class_name": "BatchNormalization"}, {"config": {"activation": "relu6", "trainable": true, "name": "conv_dw_11_relu"}, "name": "conv_dw_11_relu", "inbound_nodes": [[["conv_dw_11_bn", 0, 0, {}]]], "class_name": "Activation"}, {"config": {"activity_regularizer": null, "strides": [1, 1], "data_format": "channels_last", "name": "conv_pw_11", "bias_initializer": {"config": {}, "class_name": "Zeros"}, "bias_regularizer": null, "kernel_regularizer": null, "filters": 512, "activation": "linear", "kernel_initializer": {"config": {"scale": 1.0, "distribution": "uniform", "seed": null, "mode": "fan_avg"}, "class_name": "VarianceScaling"}, "padding": "same", "use_bias": false, "trainable": true, "dilation_rate": [1, 1], "bias_constraint": null, "kernel_size": [1, 1], "kernel_constraint": null}, "name": "conv_pw_11", "inbound_nodes": [[["conv_dw_11_relu", 0, 0, {}]]], "class_name": "Conv2D"}, {"config": {"gamma_constraint": null, "gamma_regularizer": null, "gamma_initializer": {"config": {}, "class_name": "Ones"}, "center": true, "scale": true, "momentum": 0.99, "epsilon": 0.001, "name": "conv_pw_11_bn", "moving_variance_initializer": {"config": {}, "class_name": "Ones"}, "beta_regularizer": null, "axis": -1, "trainable": true, "beta_initializer": {"config": {}, "class_name": "Zeros"}, "beta_constraint": null, "moving_mean_initializer": {"config": {}, "class_name": "Zeros"}}, "name": "conv_pw_11_bn", "inbound_nodes": [[["conv_pw_11", 0, 0, {}]]], "class_name": "BatchNormalization"}, {"config": {"activation": "relu6", "trainable": true, "name": "conv_pw_11_relu"}, "name": "conv_pw_11_relu", "inbound_nodes": [[["conv_pw_11_bn", 0, 0, {}]]], "class_name": "Activation"}, {"config": {"strides": [2, 2], "depth_multiplier": 1, "data_format": "channels_last", "name": "conv_dw_12", "bias_initializer": {"config": {}, "class_name": "Zeros"}, "bias_regularizer": null, "depthwise_initializer": {"config": {"scale": 1.0, "distribution": "uniform", "seed": null, "mode": "fan_avg"}, "class_name": "VarianceScaling"}, "depthwise_constraint": null, "padding": "same", "activity_regularizer": null, "activation": "linear", "use_bias": false, "trainable": true, "dilation_rate": [1, 1], "bias_constraint": null, "kernel_size": [3, 3], "depthwise_regularizer": null}, "name": "conv_dw_12", "inbound_nodes": [[["conv_pw_11_relu", 0, 0, {}]]], "class_name": "DepthwiseConv2D"}, {"config": {"gamma_constraint": null, "gamma_regularizer": null, "gamma_initializer": {"config": {}, "class_name": "Ones"}, "center": true, "scale": true, "momentum": 0.99, "epsilon": 0.001, "name": "conv_dw_12_bn", "moving_variance_initializer": {"config": {}, "class_name": "Ones"}, "beta_regularizer": null, "axis": -1, "trainable": true, "beta_initializer": {"config": {}, "class_name": "Zeros"}, "beta_constraint": null, "moving_mean_initializer": {"config": {}, "class_name": "Zeros"}}, "name": "conv_dw_12_bn", "inbound_nodes": [[["conv_dw_12", 0, 0, {}]]], "class_name": "BatchNormalization"}, {"config": {"activation": "relu6", "trainable": true, "name": "conv_dw_12_relu"}, "name": "conv_dw_12_relu", "inbound_nodes": [[["conv_dw_12_bn", 0, 0, {}]]], "class_name": "Activation"}, {"config": {"activity_regularizer": null, "strides": [1, 1], "data_format": "channels_last", "name": "conv_pw_12", "bias_initializer": {"config": {}, "class_name": "Zeros"}, "bias_regularizer": null, "kernel_regularizer": null, "filters": 1024, "activation": "linear", "kernel_initializer": {"config": {"scale": 1.0, "distribution": "uniform", "seed": null, "mode": "fan_avg"}, "class_name": "VarianceScaling"}, "padding": "same", "use_bias": false, "trainable": true, "dilation_rate": [1, 1], "bias_constraint": null, "kernel_size": [1, 1], "kernel_constraint": null}, "name": "conv_pw_12", "inbound_nodes": [[["conv_dw_12_relu", 0, 0, {}]]], "class_name": "Conv2D"}, {"config": {"gamma_constraint": null, "gamma_regularizer": null, "gamma_initializer": {"config": {}, "class_name": "Ones"}, "center": true, "scale": true, "momentum": 0.99, "epsilon": 0.001, "name": "conv_pw_12_bn", "moving_variance_initializer": {"config": {}, "class_name": "Ones"}, "beta_regularizer": null, "axis": -1, "trainable": true, "beta_initializer": {"config": {}, "class_name": "Zeros"}, "beta_constraint": null, "moving_mean_initializer": {"config": {}, "class_name": "Zeros"}}, "name": "conv_pw_12_bn", "inbound_nodes": [[["conv_pw_12", 0, 0, {}]]], "class_name": "BatchNormalization"}, {"config": {"activation": "relu6", "trainable": true, "name": "conv_pw_12_relu"}, "name": "conv_pw_12_relu", "inbound_nodes": [[["conv_pw_12_bn", 0, 0, {}]]], "class_name": "Activation"}, {"config": {"strides": [1, 1], "depth_multiplier": 1, "data_format": "channels_last", "name": "conv_dw_13", "bias_initializer": {"config": {}, "class_name": "Zeros"}, "bias_regularizer": null, "depthwise_initializer": {"config": {"scale": 1.0, "distribution": "uniform", "seed": null, "mode": "fan_avg"}, "class_name": "VarianceScaling"}, "depthwise_constraint": null, "padding": "same", "activity_regularizer": null, "activation": "linear", "use_bias": false, "trainable": true, "dilation_rate": [1, 1], "bias_constraint": null, "kernel_size": [3, 3], "depthwise_regularizer": null}, "name": "conv_dw_13", "inbound_nodes": [[["conv_pw_12_relu", 0, 0, {}]]], "class_name": "DepthwiseConv2D"}, {"config": {"gamma_constraint": null, "gamma_regularizer": null, "gamma_initializer": {"config": {}, "class_name": "Ones"}, "center": true, "scale": true, "momentum": 0.99, "epsilon": 0.001, "name": "conv_dw_13_bn", "moving_variance_initializer": {"config": {}, "class_name": "Ones"}, "beta_regularizer": null, "axis": -1, "trainable": true, "beta_initializer": {"config": {}, "class_name": "Zeros"}, "beta_constraint": null, "moving_mean_initializer": {"config": {}, "class_name": "Zeros"}}, "name": "conv_dw_13_bn", "inbound_nodes": [[["conv_dw_13", 0, 0, {}]]], "class_name": "BatchNormalization"}, {"config": {"activation": "relu6", "trainable": true, "name": "conv_dw_13_relu"}, "name": "conv_dw_13_relu", "inbound_nodes": [[["conv_dw_13_bn", 0, 0, {}]]], "class_name": "Activation"}, {"config": {"activity_regularizer": null, "strides": [1, 1], "data_format": "channels_last", "name": "conv_pw_13", "bias_initializer": {"config": {}, "class_name": "Zeros"}, "bias_regularizer": null, "kernel_regularizer": null, "filters": 1024, "activation": "linear", "kernel_initializer": {"config": {"scale": 1.0, "distribution": "uniform", "seed": null, "mode": "fan_avg"}, "class_name": "VarianceScaling"}, "padding": "same", "use_bias": false, "trainable": true, "dilation_rate": [1, 1], "bias_constraint": null, "kernel_size": [1, 1], "kernel_constraint": null}, "name": "conv_pw_13", "inbound_nodes": [[["conv_dw_13_relu", 0, 0, {}]]], "class_name": "Conv2D"}, {"config": {"gamma_constraint": null, "gamma_regularizer": null, "gamma_initializer": {"config": {}, "class_name": "Ones"}, "center": true, "scale": true, "momentum": 0.99, "epsilon": 0.001, "name": "conv_pw_13_bn", "moving_variance_initializer": {"config": {}, "class_name": "Ones"}, "beta_regularizer": null, "axis": -1, "trainable": true, "beta_initializer": {"config": {}, "class_name": "Zeros"}, "beta_constraint": null, "moving_mean_initializer": {"config": {}, "class_name": "Zeros"}}, "name": "conv_pw_13_bn", "inbound_nodes": [[["conv_pw_13", 0, 0, {}]]], "class_name": "BatchNormalization"}, {"config": {"activation": "relu6", "trainable": true, "name": "conv_pw_13_relu"}, "name": "conv_pw_13_relu", "inbound_nodes": [[["conv_pw_13_bn", 0, 0, {}]]], "class_name": "Activation"}, {"config": {"trainable": true, "name": "global_average_pooling2d_1", "data_format": "channels_last"}, "name": "global_average_pooling2d_1", "inbound_nodes": [[["conv_pw_13_relu", 0, 0, {}]]], "class_name": "GlobalAveragePooling2D"}, {"config": {"name": "reshape_1", "trainable": true, "target_shape": [1, 1, 1024]}, "name": "reshape_1", "inbound_nodes": [[["global_average_pooling2d_1", 0, 0, {}]]], "class_name": "Reshape"}, {"config": {"trainable": true, "seed": null, "name": "dropout", "rate": 0.6, "noise_shape": null}, "name": "dropout", "inbound_nodes": [[["reshape_1", 0, 0, {}]]], "class_name": "Dropout"}, {"config": {"activity_regularizer": null, "strides": [1, 1], "data_format": "channels_last", "name": "conv_preds", "bias_initializer": {"config": {}, "class_name": "Zeros"}, "bias_regularizer": null, "kernel_regularizer": null, "filters": 1000, "activation": "linear", "kernel_initializer": {"config": {"scale": 1.0, "distribution": "uniform", "seed": null, "mode": "fan_avg"}, "class_name": "VarianceScaling"}, "padding": "same", "use_bias": true, "trainable": true, "dilation_rate": [1, 1], "bias_constraint": null, "kernel_size": [1, 1], "kernel_constraint": null}, "name": "conv_preds", "inbound_nodes": [[["dropout", 0, 0, {}]]], "class_name": "Conv2D"}, {"config": {"activation": "softmax", "trainable": true, "name": "act_softmax"}, "name": "act_softmax", "inbound_nodes": [[["conv_preds", 0, 0, {}]]], "class_name": "Activation"}, {"config": {"name": "reshape_2", "trainable": true, "target_shape": [1000]}, "name": "reshape_2", "inbound_nodes": [[["act_softmax", 0, 0, {}]]], "class_name": "Reshape"}, {"config": {"trainable": true, "name": "1000fc", "bias_initializer": {"config": {}, "class_name": "Zeros"}, "bias_regularizer": {"config": {"l1": 0.0, "l2": 0.009999999776482582}, "class_name": "L1L2"}, "kernel_regularizer": null, "activation": "relu", "kernel_initializer": {"config": {"scale": 1.0, "distribution": "uniform", "seed": null, "mode": "fan_avg"}, "class_name": "VarianceScaling"}, "use_bias": true, "units": 1000, "bias_constraint": null, "activity_regularizer": null, "kernel_constraint": null}, "name": "1000fc", "inbound_nodes": [[["reshape_2", 0, 0, {}]]], "class_name": "Dense"}, {"config": {"trainable": true, "seed": null, "name": "Dropout_1", "rate": 0.2, "noise_shape": null}, "name": "Dropout_1", "inbound_nodes": [[["1000fc", 0, 0, {}]]], "class_name": "Dropout"}, {"config": {"trainable": true, "name": "dense_1", "bias_initializer": {"config": {}, "class_name": "Zeros"}, "bias_regularizer": null, "kernel_regularizer": null, "activation": "softmax", "kernel_initializer": {"config": {"scale": 1.0, "distribution": "uniform", "seed": null, "mode": "fan_avg"}, "class_name": "VarianceScaling"}, "use_bias": true, "units": 4, "bias_constraint": null, "activity_regularizer": null, "kernel_constraint": null}, "name": "dense_1", "inbound_nodes": [[["Dropout_1", 0, 0, {}]]], "class_name": "Dense"}]}, "keras_version": "2.1.2", "class_name": "Model"}