{"config": {"input_layers": [["input_1", 0, 0]], "output_layers": [["dense_1", 0, 0]], "layers": [{"config": {"dtype": "float32", "batch_input_shape": [null, 224, 224, 3], "name": "input_1", "sparse": false}, "class_name": "InputLayer", "inbound_nodes": [], "name": "input_1"}, {"config": {"trainable": true, "kernel_constraint": null, "kernel_size": [3, 3], "filters": 32, "dilation_rate": [1, 1], "bias_initializer": {"config": {}, "class_name": "Zeros"}, "bias_regularizer": null, "bias_constraint": null, "padding": "same", "name": "conv1", "use_bias": false, "data_format": "channels_last", "activity_regularizer": null, "strides": [2, 2], "kernel_initializer": {"config": {"scale": 1.0, "distribution": "uniform", "seed": null, "mode": "fan_avg"}, "class_name": "VarianceScaling"}, "activation": "linear", "kernel_regularizer": null}, "class_name": "Conv2D", "inbound_nodes": [[["input_1", 0, 0, {}]]], "name": "conv1"}, {"config": {"trainable": true, "gamma_constraint": null, "center": true, "moving_variance_initializer": {"config": {}, "class_name": "Ones"}, "beta_regularizer": null, "gamma_initializer": {"config": {}, "class_name": "Ones"}, "beta_constraint": null, "name": "conv1_bn", "beta_initializer": {"config": {}, "class_name": "Zeros"}, "scale": true, "momentum": 0.99, "axis": -1, "epsilon": 0.001, "gamma_regularizer": null, "moving_mean_initializer": {"config": {}, "class_name": "Zeros"}}, "class_name": "BatchNormalization", "inbound_nodes": [[["conv1", 0, 0, {}]]], "name": "conv1_bn"}, {"config": {"trainable": true, "activation": "relu6", "name": "conv1_relu"}, "class_name": "Activation", "inbound_nodes": [[["conv1_bn", 0, 0, {}]]], "name": "conv1_relu"}, {"config": {"trainable": true, "kernel_size": [3, 3], "dilation_rate": [1, 1], "bias_initializer": {"config": {}, "class_name": "Zeros"}, "bias_regularizer": null, "bias_constraint": null, "padding": "same", "name": "conv_dw_1", "use_bias": false, "activation": "linear", "depthwise_constraint": null, "data_format": "channels_last", "depth_multiplier": 1, "activity_regularizer": null, "strides": [1, 1], "depthwise_regularizer": null, "depthwise_initializer": {"config": {"scale": 1.0, "distribution": "uniform", "seed": null, "mode": "fan_avg"}, "class_name": "VarianceScaling"}}, "class_name": "DepthwiseConv2D", "inbound_nodes": [[["conv1_relu", 0, 0, {}]]], "name": "conv_dw_1"}, {"config": {"trainable": true, "gamma_constraint": null, "center": true, "moving_variance_initializer": {"config": {}, "class_name": "Ones"}, "beta_regularizer": null, "gamma_initializer": {"config": {}, "class_name": "Ones"}, "beta_constraint": null, "name": "conv_dw_1_bn", "beta_initializer": {"config": {}, "class_name": "Zeros"}, "scale": true, "momentum": 0.99, "axis": -1, "epsilon": 0.001, "gamma_regularizer": null, "moving_mean_initializer": {"config": {}, "class_name": "Zeros"}}, "class_name": "BatchNormalization", "inbound_nodes": [[["conv_dw_1", 0, 0, {}]]], "name": "conv_dw_1_bn"}, {"config": {"trainable": true, "activation": "relu6", "name": "conv_dw_1_relu"}, "class_name": "Activation", "inbound_nodes": [[["conv_dw_1_bn", 0, 0, {}]]], "name": "conv_dw_1_relu"}, {"config": {"trainable": true, "kernel_constraint": null, "kernel_size": [1, 1], "filters": 64, "dilation_rate": [1, 1], "bias_initializer": {"config": {}, "class_name": "Zeros"}, "bias_regularizer": null, "bias_constraint": null, "padding": "same", "name": "conv_pw_1", "use_bias": false, "data_format": "channels_last", "activity_regularizer": null, "strides": [1, 1], "kernel_initializer": {"config": {"scale": 1.0, "distribution": "uniform", "seed": null, "mode": "fan_avg"}, "class_name": "VarianceScaling"}, "activation": "linear", "kernel_regularizer": null}, "class_name": "Conv2D", "inbound_nodes": [[["conv_dw_1_relu", 0, 0, {}]]], "name": "conv_pw_1"}, {"config": {"trainable": true, "gamma_constraint": null, "center": true, "moving_variance_initializer": {"config": {}, "class_name": "Ones"}, "beta_regularizer": null, "gamma_initializer": {"config": {}, "class_name": "Ones"}, "beta_constraint": null, "name": "conv_pw_1_bn", "beta_initializer": {"config": {}, "class_name": "Zeros"}, "scale": true, "momentum": 0.99, "axis": -1, "epsilon": 0.001, "gamma_regularizer": null, "moving_mean_initializer": {"config": {}, "class_name": "Zeros"}}, "class_name": "BatchNormalization", "inbound_nodes": [[["conv_pw_1", 0, 0, {}]]], "name": "conv_pw_1_bn"}, {"config": {"trainable": true, "activation": "relu6", "name": "conv_pw_1_relu"}, "class_name": "Activation", "inbound_nodes": [[["conv_pw_1_bn", 0, 0, {}]]], "name": "conv_pw_1_relu"}, {"config": {"trainable": true, "kernel_size": [3, 3], "dilation_rate": [1, 1], "bias_initializer": {"config": {}, "class_name": "Zeros"}, "bias_regularizer": null, "bias_constraint": null, "padding": "same", "name": "conv_dw_2", "use_bias": false, "activation": "linear", "depthwise_constraint": null, "data_format": "channels_last", "depth_multiplier": 1, "activity_regularizer": null, "strides": [2, 2], "depthwise_regularizer": null, "depthwise_initializer": {"config": {"scale": 1.0, "distribution": "uniform", "seed": null, "mode": "fan_avg"}, "class_name": "VarianceScaling"}}, "class_name": "DepthwiseConv2D", "inbound_nodes": [[["conv_pw_1_relu", 0, 0, {}]]], "name": "conv_dw_2"}, {"config": {"trainable": true, "gamma_constraint": null, "center": true, "moving_variance_initializer": {"config": {}, "class_name": "Ones"}, "beta_regularizer": null, "gamma_initializer": {"config": {}, "class_name": "Ones"}, "beta_constraint": null, "name": "conv_dw_2_bn", "beta_initializer": {"config": {}, "class_name": "Zeros"}, "scale": true, "momentum": 0.99, "axis": -1, "epsilon": 0.001, "gamma_regularizer": null, "moving_mean_initializer": {"config": {}, "class_name": "Zeros"}}, "class_name": "BatchNormalization", "inbound_nodes": [[["conv_dw_2", 0, 0, {}]]], "name": "conv_dw_2_bn"}, {"config": {"trainable": true, "activation": "relu6", "name": "conv_dw_2_relu"}, "class_name": "Activation", "inbound_nodes": [[["conv_dw_2_bn", 0, 0, {}]]], "name": "conv_dw_2_relu"}, {"config": {"trainable": true, "kernel_constraint": null, "kernel_size": [1, 1], "filters": 128, "dilation_rate": [1, 1], "bias_initializer": {"config": {}, "class_name": "Zeros"}, "bias_regularizer": null, "bias_constraint": null, "padding": "same", "name": "conv_pw_2", "use_bias": false, "data_format": "channels_last", "activity_regularizer": null, "strides": [1, 1], "kernel_initializer": {"config": {"scale": 1.0, "distribution": "uniform", "seed": null, "mode": "fan_avg"}, "class_name": "VarianceScaling"}, "activation": "linear", "kernel_regularizer": null}, "class_name": "Conv2D", "inbound_nodes": [[["conv_dw_2_relu", 0, 0, {}]]], "name": "conv_pw_2"}, {"config": {"trainable": true, "gamma_constraint": null, "center": true, "moving_variance_initializer": {"config": {}, "class_name": "Ones"}, "beta_regularizer": null, "gamma_initializer": {"config": {}, "class_name": "Ones"}, "beta_constraint": null, "name": "conv_pw_2_bn", "beta_initializer": {"config": {}, "class_name": "Zeros"}, "scale": true, "momentum": 0.99, "axis": -1, "epsilon": 0.001, "gamma_regularizer": null, "moving_mean_initializer": {"config": {}, "class_name": "Zeros"}}, "class_name": "BatchNormalization", "inbound_nodes": [[["conv_pw_2", 0, 0, {}]]], "name": "conv_pw_2_bn"}, {"config": {"trainable": true, "activation": "relu6", "name": "conv_pw_2_relu"}, "class_name": "Activation", "inbound_nodes": [[["conv_pw_2_bn", 0, 0, {}]]], "name": "conv_pw_2_relu"}, {"config": {"trainable": true, "kernel_size": [3, 3], "dilation_rate": [1, 1], "bias_initializer": {"config": {}, "class_name": "Zeros"}, "bias_regularizer": null, "bias_constraint": null, "padding": "same", "name": "conv_dw_3", "use_bias": false, "activation": "linear", "depthwise_constraint": null, "data_format": "channels_last", "depth_multiplier": 1, "activity_regularizer": null, "strides": [1, 1], "depthwise_regularizer": null, "depthwise_initializer": {"config": {"scale": 1.0, "distribution": "uniform", "seed": null, "mode": "fan_avg"}, "class_name": "VarianceScaling"}}, "class_name": "DepthwiseConv2D", "inbound_nodes": [[["conv_pw_2_relu", 0, 0, {}]]], "name": "conv_dw_3"}, {"config": {"trainable": true, "gamma_constraint": null, "center": true, "moving_variance_initializer": {"config": {}, "class_name": "Ones"}, "beta_regularizer": null, "gamma_initializer": {"config": {}, "class_name": "Ones"}, "beta_constraint": null, "name": "conv_dw_3_bn", "beta_initializer": {"config": {}, "class_name": "Zeros"}, "scale": true, "momentum": 0.99, "axis": -1, "epsilon": 0.001, "gamma_regularizer": null, "moving_mean_initializer": {"config": {}, "class_name": "Zeros"}}, "class_name": "BatchNormalization", "inbound_nodes": [[["conv_dw_3", 0, 0, {}]]], "name": "conv_dw_3_bn"}, {"config": {"trainable": true, "activation": "relu6", "name": "conv_dw_3_relu"}, "class_name": "Activation", "inbound_nodes": [[["conv_dw_3_bn", 0, 0, {}]]], "name": "conv_dw_3_relu"}, {"config": {"trainable": true, "kernel_constraint": null, "kernel_size": [1, 1], "filters": 128, "dilation_rate": [1, 1], "bias_initializer": {"config": {}, "class_name": "Zeros"}, "bias_regularizer": null, "bias_constraint": null, "padding": "same", "name": "conv_pw_3", "use_bias": false, "data_format": "channels_last", "activity_regularizer": null, "strides": [1, 1], "kernel_initializer": {"config": {"scale": 1.0, "distribution": "uniform", "seed": null, "mode": "fan_avg"}, "class_name": "VarianceScaling"}, "activation": "linear", "kernel_regularizer": null}, "class_name": "Conv2D", "inbound_nodes": [[["conv_dw_3_relu", 0, 0, {}]]], "name": "conv_pw_3"}, {"config": {"trainable": true, "gamma_constraint": null, "center": true, "moving_variance_initializer": {"config": {}, "class_name": "Ones"}, "beta_regularizer": null, "gamma_initializer": {"config": {}, "class_name": "Ones"}, "beta_constraint": null, "name": "conv_pw_3_bn", "beta_initializer": {"config": {}, "class_name": "Zeros"}, "scale": true, "momentum": 0.99, "axis": -1, "epsilon": 0.001, "gamma_regularizer": null, "moving_mean_initializer": {"config": {}, "class_name": "Zeros"}}, "class_name": "BatchNormalization", "inbound_nodes": [[["conv_pw_3", 0, 0, {}]]], "name": "conv_pw_3_bn"}, {"config": {"trainable": true, "activation": "relu6", "name": "conv_pw_3_relu"}, "class_name": "Activation", "inbound_nodes": [[["conv_pw_3_bn", 0, 0, {}]]], "name": "conv_pw_3_relu"}, {"config": {"trainable": true, "kernel_size": [3, 3], "dilation_rate": [1, 1], "bias_initializer": {"config": {}, "class_name": "Zeros"}, "bias_regularizer": null, "bias_constraint": null, "padding": "same", "name": "conv_dw_4", "use_bias": false, "activation": "linear", "depthwise_constraint": null, "data_format": "channels_last", "depth_multiplier": 1, "activity_regularizer": null, "strides": [2, 2], "depthwise_regularizer": null, "depthwise_initializer": {"config": {"scale": 1.0, "distribution": "uniform", "seed": null, "mode": "fan_avg"}, "class_name": "VarianceScaling"}}, "class_name": "DepthwiseConv2D", "inbound_nodes": [[["conv_pw_3_relu", 0, 0, {}]]], "name": "conv_dw_4"}, {"config": {"trainable": true, "gamma_constraint": null, "center": true, "moving_variance_initializer": {"config": {}, "class_name": "Ones"}, "beta_regularizer": null, "gamma_initializer": {"config": {}, "class_name": "Ones"}, "beta_constraint": null, "name": "conv_dw_4_bn", "beta_initializer": {"config": {}, "class_name": "Zeros"}, "scale": true, "momentum": 0.99, "axis": -1, "epsilon": 0.001, "gamma_regularizer": null, "moving_mean_initializer": {"config": {}, "class_name": "Zeros"}}, "class_name": "BatchNormalization", "inbound_nodes": [[["conv_dw_4", 0, 0, {}]]], "name": "conv_dw_4_bn"}, {"config": {"trainable": true, "activation": "relu6", "name": "conv_dw_4_relu"}, "class_name": "Activation", "inbound_nodes": [[["conv_dw_4_bn", 0, 0, {}]]], "name": "conv_dw_4_relu"}, {"config": {"trainable": true, "kernel_constraint": null, "kernel_size": [1, 1], "filters": 256, "dilation_rate": [1, 1], "bias_initializer": {"config": {}, "class_name": "Zeros"}, "bias_regularizer": null, "bias_constraint": null, "padding": "same", "name": "conv_pw_4", "use_bias": false, "data_format": "channels_last", "activity_regularizer": null, "strides": [1, 1], "kernel_initializer": {"config": {"scale": 1.0, "distribution": "uniform", "seed": null, "mode": "fan_avg"}, "class_name": "VarianceScaling"}, "activation": "linear", "kernel_regularizer": null}, "class_name": "Conv2D", "inbound_nodes": [[["conv_dw_4_relu", 0, 0, {}]]], "name": "conv_pw_4"}, {"config": {"trainable": true, "gamma_constraint": null, "center": true, "moving_variance_initializer": {"config": {}, "class_name": "Ones"}, "beta_regularizer": null, "gamma_initializer": {"config": {}, "class_name": "Ones"}, "beta_constraint": null, "name": "conv_pw_4_bn", "beta_initializer": {"config": {}, "class_name": "Zeros"}, "scale": true, "momentum": 0.99, "axis": -1, "epsilon": 0.001, "gamma_regularizer": null, "moving_mean_initializer": {"config": {}, "class_name": "Zeros"}}, "class_name": "BatchNormalization", "inbound_nodes": [[["conv_pw_4", 0, 0, {}]]], "name": "conv_pw_4_bn"}, {"config": {"trainable": true, "activation": "relu6", "name": "conv_pw_4_relu"}, "class_name": "Activation", "inbound_nodes": [[["conv_pw_4_bn", 0, 0, {}]]], "name": "conv_pw_4_relu"}, {"config": {"trainable": true, "kernel_size": [3, 3], "dilation_rate": [1, 1], "bias_initializer": {"config": {}, "class_name": "Zeros"}, "bias_regularizer": null, "bias_constraint": null, "padding": "same", "name": "conv_dw_5", "use_bias": false, "activation": "linear", "depthwise_constraint": null, "data_format": "channels_last", "depth_multiplier": 1, "activity_regularizer": null, "strides": [1, 1], "depthwise_regularizer": null, "depthwise_initializer": {"config": {"scale": 1.0, "distribution": "uniform", "seed": null, "mode": "fan_avg"}, "class_name": "VarianceScaling"}}, "class_name": "DepthwiseConv2D", "inbound_nodes": [[["conv_pw_4_relu", 0, 0, {}]]], "name": "conv_dw_5"}, {"config": {"trainable": true, "gamma_constraint": null, "center": true, "moving_variance_initializer": {"config": {}, "class_name": "Ones"}, "beta_regularizer": null, "gamma_initializer": {"config": {}, "class_name": "Ones"}, "beta_constraint": null, "name": "conv_dw_5_bn", "beta_initializer": {"config": {}, "class_name": "Zeros"}, "scale": true, "momentum": 0.99, "axis": -1, "epsilon": 0.001, "gamma_regularizer": null, "moving_mean_initializer": {"config": {}, "class_name": "Zeros"}}, "class_name": "BatchNormalization", "inbound_nodes": [[["conv_dw_5", 0, 0, {}]]], "name": "conv_dw_5_bn"}, {"config": {"trainable": true, "activation": "relu6", "name": "conv_dw_5_relu"}, "class_name": "Activation", "inbound_nodes": [[["conv_dw_5_bn", 0, 0, {}]]], "name": "conv_dw_5_relu"}, {"config": {"trainable": true, "kernel_constraint": null, "kernel_size": [1, 1], "filters": 256, "dilation_rate": [1, 1], "bias_initializer": {"config": {}, "class_name": "Zeros"}, "bias_regularizer": null, "bias_constraint": null, "padding": "same", "name": "conv_pw_5", "use_bias": false, "data_format": "channels_last", "activity_regularizer": null, "strides": [1, 1], "kernel_initializer": {"config": {"scale": 1.0, "distribution": "uniform", "seed": null, "mode": "fan_avg"}, "class_name": "VarianceScaling"}, "activation": "linear", "kernel_regularizer": null}, "class_name": "Conv2D", "inbound_nodes": [[["conv_dw_5_relu", 0, 0, {}]]], "name": "conv_pw_5"}, {"config": {"trainable": true, "gamma_constraint": null, "center": true, "moving_variance_initializer": {"config": {}, "class_name": "Ones"}, "beta_regularizer": null, "gamma_initializer": {"config": {}, "class_name": "Ones"}, "beta_constraint": null, "name": "conv_pw_5_bn", "beta_initializer": {"config": {}, "class_name": "Zeros"}, "scale": true, "momentum": 0.99, "axis": -1, "epsilon": 0.001, "gamma_regularizer": null, "moving_mean_initializer": {"config": {}, "class_name": "Zeros"}}, "class_name": "BatchNormalization", "inbound_nodes": [[["conv_pw_5", 0, 0, {}]]], "name": "conv_pw_5_bn"}, {"config": {"trainable": true, "activation": "relu6", "name": "conv_pw_5_relu"}, "class_name": "Activation", "inbound_nodes": [[["conv_pw_5_bn", 0, 0, {}]]], "name": "conv_pw_5_relu"}, {"config": {"trainable": true, "kernel_size": [3, 3], "dilation_rate": [1, 1], "bias_initializer": {"config": {}, "class_name": "Zeros"}, "bias_regularizer": null, "bias_constraint": null, "padding": "same", "name": "conv_dw_6", "use_bias": false, "activation": "linear", "depthwise_constraint": null, "data_format": "channels_last", "depth_multiplier": 1, "activity_regularizer": null, "strides": [2, 2], "depthwise_regularizer": null, "depthwise_initializer": {"config": {"scale": 1.0, "distribution": "uniform", "seed": null, "mode": "fan_avg"}, "class_name": "VarianceScaling"}}, "class_name": "DepthwiseConv2D", "inbound_nodes": [[["conv_pw_5_relu", 0, 0, {}]]], "name": "conv_dw_6"}, {"config": {"trainable": true, "gamma_constraint": null, "center": true, "moving_variance_initializer": {"config": {}, "class_name": "Ones"}, "beta_regularizer": null, "gamma_initializer": {"config": {}, "class_name": "Ones"}, "beta_constraint": null, "name": "conv_dw_6_bn", "beta_initializer": {"config": {}, "class_name": "Zeros"}, "scale": true, "momentum": 0.99, "axis": -1, "epsilon": 0.001, "gamma_regularizer": null, "moving_mean_initializer": {"config": {}, "class_name": "Zeros"}}, "class_name": "BatchNormalization", "inbound_nodes": [[["conv_dw_6", 0, 0, {}]]], "name": "conv_dw_6_bn"}, {"config": {"trainable": true, "activation": "relu6", "name": "conv_dw_6_relu"}, "class_name": "Activation", "inbound_nodes": [[["conv_dw_6_bn", 0, 0, {}]]], "name": "conv_dw_6_relu"}, {"config": {"trainable": true, "kernel_constraint": null, "kernel_size": [1, 1], "filters": 512, "dilation_rate": [1, 1], "bias_initializer": {"config": {}, "class_name": "Zeros"}, "bias_regularizer": null, "bias_constraint": null, "padding": "same", "name": "conv_pw_6", "use_bias": false, "data_format": "channels_last", "activity_regularizer": null, "strides": [1, 1], "kernel_initializer": {"config": {"scale": 1.0, "distribution": "uniform", "seed": null, "mode": "fan_avg"}, "class_name": "VarianceScaling"}, "activation": "linear", "kernel_regularizer": null}, "class_name": "Conv2D", "inbound_nodes": [[["conv_dw_6_relu", 0, 0, {}]]], "name": "conv_pw_6"}, {"config": {"trainable": true, "gamma_constraint": null, "center": true, "moving_variance_initializer": {"config": {}, "class_name": "Ones"}, "beta_regularizer": null, "gamma_initializer": {"config": {}, "class_name": "Ones"}, "beta_constraint": null, "name": "conv_pw_6_bn", "beta_initializer": {"config": {}, "class_name": "Zeros"}, "scale": true, "momentum": 0.99, "axis": -1, "epsilon": 0.001, "gamma_regularizer": null, "moving_mean_initializer": {"config": {}, "class_name": "Zeros"}}, "class_name": "BatchNormalization", "inbound_nodes": [[["conv_pw_6", 0, 0, {}]]], "name": "conv_pw_6_bn"}, {"config": {"trainable": true, "activation": "relu6", "name": "conv_pw_6_relu"}, "class_name": "Activation", "inbound_nodes": [[["conv_pw_6_bn", 0, 0, {}]]], "name": "conv_pw_6_relu"}, {"config": {"trainable": true, "kernel_size": [3, 3], "dilation_rate": [1, 1], "bias_initializer": {"config": {}, "class_name": "Zeros"}, "bias_regularizer": null, "bias_constraint": null, "padding": "same", "name": "conv_dw_7", "use_bias": false, "activation": "linear", "depthwise_constraint": null, "data_format": "channels_last", "depth_multiplier": 1, "activity_regularizer": null, "strides": [1, 1], "depthwise_regularizer": null, "depthwise_initializer": {"config": {"scale": 1.0, "distribution": "uniform", "seed": null, "mode": "fan_avg"}, "class_name": "VarianceScaling"}}, "class_name": "DepthwiseConv2D", "inbound_nodes": [[["conv_pw_6_relu", 0, 0, {}]]], "name": "conv_dw_7"}, {"config": {"trainable": true, "gamma_constraint": null, "center": true, "moving_variance_initializer": {"config": {}, "class_name": "Ones"}, "beta_regularizer": null, "gamma_initializer": {"config": {}, "class_name": "Ones"}, "beta_constraint": null, "name": "conv_dw_7_bn", "beta_initializer": {"config": {}, "class_name": "Zeros"}, "scale": true, "momentum": 0.99, "axis": -1, "epsilon": 0.001, "gamma_regularizer": null, "moving_mean_initializer": {"config": {}, "class_name": "Zeros"}}, "class_name": "BatchNormalization", "inbound_nodes": [[["conv_dw_7", 0, 0, {}]]], "name": "conv_dw_7_bn"}, {"config": {"trainable": true, "activation": "relu6", "name": "conv_dw_7_relu"}, "class_name": "Activation", "inbound_nodes": [[["conv_dw_7_bn", 0, 0, {}]]], "name": "conv_dw_7_relu"}, {"config": {"trainable": true, "kernel_constraint": null, "kernel_size": [1, 1], "filters": 512, "dilation_rate": [1, 1], "bias_initializer": {"config": {}, "class_name": "Zeros"}, "bias_regularizer": null, "bias_constraint": null, "padding": "same", "name": "conv_pw_7", "use_bias": false, "data_format": "channels_last", "activity_regularizer": null, "strides": [1, 1], "kernel_initializer": {"config": {"scale": 1.0, "distribution": "uniform", "seed": null, "mode": "fan_avg"}, "class_name": "VarianceScaling"}, "activation": "linear", "kernel_regularizer": null}, "class_name": "Conv2D", "inbound_nodes": [[["conv_dw_7_relu", 0, 0, {}]]], "name": "conv_pw_7"}, {"config": {"trainable": true, "gamma_constraint": null, "center": true, "moving_variance_initializer": {"config": {}, "class_name": "Ones"}, "beta_regularizer": null, "gamma_initializer": {"config": {}, "class_name": "Ones"}, "beta_constraint": null, "name": "conv_pw_7_bn", "beta_initializer": {"config": {}, "class_name": "Zeros"}, "scale": true, "momentum": 0.99, "axis": -1, "epsilon": 0.001, "gamma_regularizer": null, "moving_mean_initializer": {"config": {}, "class_name": "Zeros"}}, "class_name": "BatchNormalization", "inbound_nodes": [[["conv_pw_7", 0, 0, {}]]], "name": "conv_pw_7_bn"}, {"config": {"trainable": true, "activation": "relu6", "name": "conv_pw_7_relu"}, "class_name": "Activation", "inbound_nodes": [[["conv_pw_7_bn", 0, 0, {}]]], "name": "conv_pw_7_relu"}, {"config": {"trainable": true, "kernel_size": [3, 3], "dilation_rate": [1, 1], "bias_initializer": {"config": {}, "class_name": "Zeros"}, "bias_regularizer": null, "bias_constraint": null, "padding": "same", "name": "conv_dw_8", "use_bias": false, "activation": "linear", "depthwise_constraint": null, "data_format": "channels_last", "depth_multiplier": 1, "activity_regularizer": null, "strides": [1, 1], "depthwise_regularizer": null, "depthwise_initializer": {"config": {"scale": 1.0, "distribution": "uniform", "seed": null, "mode": "fan_avg"}, "class_name": "VarianceScaling"}}, "class_name": "DepthwiseConv2D", "inbound_nodes": [[["conv_pw_7_relu", 0, 0, {}]]], "name": "conv_dw_8"}, {"config": {"trainable": true, "gamma_constraint": null, "center": true, "moving_variance_initializer": {"config": {}, "class_name": "Ones"}, "beta_regularizer": null, "gamma_initializer": {"config": {}, "class_name": "Ones"}, "beta_constraint": null, "name": "conv_dw_8_bn", "beta_initializer": {"config": {}, "class_name": "Zeros"}, "scale": true, "momentum": 0.99, "axis": -1, "epsilon": 0.001, "gamma_regularizer": null, "moving_mean_initializer": {"config": {}, "class_name": "Zeros"}}, "class_name": "BatchNormalization", "inbound_nodes": [[["conv_dw_8", 0, 0, {}]]], "name": "conv_dw_8_bn"}, {"config": {"trainable": true, "activation": "relu6", "name": "conv_dw_8_relu"}, "class_name": "Activation", "inbound_nodes": [[["conv_dw_8_bn", 0, 0, {}]]], "name": "conv_dw_8_relu"}, {"config": {"trainable": true, "kernel_constraint": null, "kernel_size": [1, 1], "filters": 512, "dilation_rate": [1, 1], "bias_initializer": {"config": {}, "class_name": "Zeros"}, "bias_regularizer": null, "bias_constraint": null, "padding": "same", "name": "conv_pw_8", "use_bias": false, "data_format": "channels_last", "activity_regularizer": null, "strides": [1, 1], "kernel_initializer": {"config": {"scale": 1.0, "distribution": "uniform", "seed": null, "mode": "fan_avg"}, "class_name": "VarianceScaling"}, "activation": "linear", "kernel_regularizer": null}, "class_name": "Conv2D", "inbound_nodes": [[["conv_dw_8_relu", 0, 0, {}]]], "name": "conv_pw_8"}, {"config": {"trainable": true, "gamma_constraint": null, "center": true, "moving_variance_initializer": {"config": {}, "class_name": "Ones"}, "beta_regularizer": null, "gamma_initializer": {"config": {}, "class_name": "Ones"}, "beta_constraint": null, "name": "conv_pw_8_bn", "beta_initializer": {"config": {}, "class_name": "Zeros"}, "scale": true, "momentum": 0.99, "axis": -1, "epsilon": 0.001, "gamma_regularizer": null, "moving_mean_initializer": {"config": {}, "class_name": "Zeros"}}, "class_name": "BatchNormalization", "inbound_nodes": [[["conv_pw_8", 0, 0, {}]]], "name": "conv_pw_8_bn"}, {"config": {"trainable": true, "activation": "relu6", "name": "conv_pw_8_relu"}, "class_name": "Activation", "inbound_nodes": [[["conv_pw_8_bn", 0, 0, {}]]], "name": "conv_pw_8_relu"}, {"config": {"trainable": true, "kernel_size": [3, 3], "dilation_rate": [1, 1], "bias_initializer": {"config": {}, "class_name": "Zeros"}, "bias_regularizer": null, "bias_constraint": null, "padding": "same", "name": "conv_dw_9", "use_bias": false, "activation": "linear", "depthwise_constraint": null, "data_format": "channels_last", "depth_multiplier": 1, "activity_regularizer": null, "strides": [1, 1], "depthwise_regularizer": null, "depthwise_initializer": {"config": {"scale": 1.0, "distribution": "uniform", "seed": null, "mode": "fan_avg"}, "class_name": "VarianceScaling"}}, "class_name": "DepthwiseConv2D", "inbound_nodes": [[["conv_pw_8_relu", 0, 0, {}]]], "name": "conv_dw_9"}, {"config": {"trainable": true, "gamma_constraint": null, "center": true, "moving_variance_initializer": {"config": {}, "class_name": "Ones"}, "beta_regularizer": null, "gamma_initializer": {"config": {}, "class_name": "Ones"}, "beta_constraint": null, "name": "conv_dw_9_bn", "beta_initializer": {"config": {}, "class_name": "Zeros"}, "scale": true, "momentum": 0.99, "axis": -1, "epsilon": 0.001, "gamma_regularizer": null, "moving_mean_initializer": {"config": {}, "class_name": "Zeros"}}, "class_name": "BatchNormalization", "inbound_nodes": [[["conv_dw_9", 0, 0, {}]]], "name": "conv_dw_9_bn"}, {"config": {"trainable": true, "activation": "relu6", "name": "conv_dw_9_relu"}, "class_name": "Activation", "inbound_nodes": [[["conv_dw_9_bn", 0, 0, {}]]], "name": "conv_dw_9_relu"}, {"config": {"trainable": true, "kernel_constraint": null, "kernel_size": [1, 1], "filters": 512, "dilation_rate": [1, 1], "bias_initializer": {"config": {}, "class_name": "Zeros"}, "bias_regularizer": null, "bias_constraint": null, "padding": "same", "name": "conv_pw_9", "use_bias": false, "data_format": "channels_last", "activity_regularizer": null, "strides": [1, 1], "kernel_initializer": {"config": {"scale": 1.0, "distribution": "uniform", "seed": null, "mode": "fan_avg"}, "class_name": "VarianceScaling"}, "activation": "linear", "kernel_regularizer": null}, "class_name": "Conv2D", "inbound_nodes": [[["conv_dw_9_relu", 0, 0, {}]]], "name": "conv_pw_9"}, {"config": {"trainable": true, "gamma_constraint": null, "center": true, "moving_variance_initializer": {"config": {}, "class_name": "Ones"}, "beta_regularizer": null, "gamma_initializer": {"config": {}, "class_name": "Ones"}, "beta_constraint": null, "name": "conv_pw_9_bn", "beta_initializer": {"config": {}, "class_name": "Zeros"}, "scale": true, "momentum": 0.99, "axis": -1, "epsilon": 0.001, "gamma_regularizer": null, "moving_mean_initializer": {"config": {}, "class_name": "Zeros"}}, "class_name": "BatchNormalization", "inbound_nodes": [[["conv_pw_9", 0, 0, {}]]], "name": "conv_pw_9_bn"}, {"config": {"trainable": true, "activation": "relu6", "name": "conv_pw_9_relu"}, "class_name": "Activation", "inbound_nodes": [[["conv_pw_9_bn", 0, 0, {}]]], "name": "conv_pw_9_relu"}, {"config": {"trainable": true, "kernel_size": [3, 3], "dilation_rate": [1, 1], "bias_initializer": {"config": {}, "class_name": "Zeros"}, "bias_regularizer": null, "bias_constraint": null, "padding": "same", "name": "conv_dw_10", "use_bias": false, "activation": "linear", "depthwise_constraint": null, "data_format": "channels_last", "depth_multiplier": 1, "activity_regularizer": null, "strides": [1, 1], "depthwise_regularizer": null, "depthwise_initializer": {"config": {"scale": 1.0, "distribution": "uniform", "seed": null, "mode": "fan_avg"}, "class_name": "VarianceScaling"}}, "class_name": "DepthwiseConv2D", "inbound_nodes": [[["conv_pw_9_relu", 0, 0, {}]]], "name": "conv_dw_10"}, {"config": {"trainable": true, "gamma_constraint": null, "center": true, "moving_variance_initializer": {"config": {}, "class_name": "Ones"}, "beta_regularizer": null, "gamma_initializer": {"config": {}, "class_name": "Ones"}, "beta_constraint": null, "name": "conv_dw_10_bn", "beta_initializer": {"config": {}, "class_name": "Zeros"}, "scale": true, "momentum": 0.99, "axis": -1, "epsilon": 0.001, "gamma_regularizer": null, "moving_mean_initializer": {"config": {}, "class_name": "Zeros"}}, "class_name": "BatchNormalization", "inbound_nodes": [[["conv_dw_10", 0, 0, {}]]], "name": "conv_dw_10_bn"}, {"config": {"trainable": true, "activation": "relu6", "name": "conv_dw_10_relu"}, "class_name": "Activation", "inbound_nodes": [[["conv_dw_10_bn", 0, 0, {}]]], "name": "conv_dw_10_relu"}, {"config": {"trainable": true, "kernel_constraint": null, "kernel_size": [1, 1], "filters": 512, "dilation_rate": [1, 1], "bias_initializer": {"config": {}, "class_name": "Zeros"}, "bias_regularizer": null, "bias_constraint": null, "padding": "same", "name": "conv_pw_10", "use_bias": false, "data_format": "channels_last", "activity_regularizer": null, "strides": [1, 1], "kernel_initializer": {"config": {"scale": 1.0, "distribution": "uniform", "seed": null, "mode": "fan_avg"}, "class_name": "VarianceScaling"}, "activation": "linear", "kernel_regularizer": null}, "class_name": "Conv2D", "inbound_nodes": [[["conv_dw_10_relu", 0, 0, {}]]], "name": "conv_pw_10"}, {"config": {"trainable": true, "gamma_constraint": null, "center": true, "moving_variance_initializer": {"config": {}, "class_name": "Ones"}, "beta_regularizer": null, "gamma_initializer": {"config": {}, "class_name": "Ones"}, "beta_constraint": null, "name": "conv_pw_10_bn", "beta_initializer": {"config": {}, "class_name": "Zeros"}, "scale": true, "momentum": 0.99, "axis": -1, "epsilon": 0.001, "gamma_regularizer": null, "moving_mean_initializer": {"config": {}, "class_name": "Zeros"}}, "class_name": "BatchNormalization", "inbound_nodes": [[["conv_pw_10", 0, 0, {}]]], "name": "conv_pw_10_bn"}, {"config": {"trainable": true, "activation": "relu6", "name": "conv_pw_10_relu"}, "class_name": "Activation", "inbound_nodes": [[["conv_pw_10_bn", 0, 0, {}]]], "name": "conv_pw_10_relu"}, {"config": {"trainable": true, "kernel_size": [3, 3], "dilation_rate": [1, 1], "bias_initializer": {"config": {}, "class_name": "Zeros"}, "bias_regularizer": null, "bias_constraint": null, "padding": "same", "name": "conv_dw_11", "use_bias": false, "activation": "linear", "depthwise_constraint": null, "data_format": "channels_last", "depth_multiplier": 1, "activity_regularizer": null, "strides": [1, 1], "depthwise_regularizer": null, "depthwise_initializer": {"config": {"scale": 1.0, "distribution": "uniform", "seed": null, "mode": "fan_avg"}, "class_name": "VarianceScaling"}}, "class_name": "DepthwiseConv2D", "inbound_nodes": [[["conv_pw_10_relu", 0, 0, {}]]], "name": "conv_dw_11"}, {"config": {"trainable": true, "gamma_constraint": null, "center": true, "moving_variance_initializer": {"config": {}, "class_name": "Ones"}, "beta_regularizer": null, "gamma_initializer": {"config": {}, "class_name": "Ones"}, "beta_constraint": null, "name": "conv_dw_11_bn", "beta_initializer": {"config": {}, "class_name": "Zeros"}, "scale": true, "momentum": 0.99, "axis": -1, "epsilon": 0.001, "gamma_regularizer": null, "moving_mean_initializer": {"config": {}, "class_name": "Zeros"}}, "class_name": "BatchNormalization", "inbound_nodes": [[["conv_dw_11", 0, 0, {}]]], "name": "conv_dw_11_bn"}, {"config": {"trainable": true, "activation": "relu6", "name": "conv_dw_11_relu"}, "class_name": "Activation", "inbound_nodes": [[["conv_dw_11_bn", 0, 0, {}]]], "name": "conv_dw_11_relu"}, {"config": {"trainable": true, "kernel_constraint": null, "kernel_size": [1, 1], "filters": 512, "dilation_rate": [1, 1], "bias_initializer": {"config": {}, "class_name": "Zeros"}, "bias_regularizer": null, "bias_constraint": null, "padding": "same", "name": "conv_pw_11", "use_bias": false, "data_format": "channels_last", "activity_regularizer": null, "strides": [1, 1], "kernel_initializer": {"config": {"scale": 1.0, "distribution": "uniform", "seed": null, "mode": "fan_avg"}, "class_name": "VarianceScaling"}, "activation": "linear", "kernel_regularizer": null}, "class_name": "Conv2D", "inbound_nodes": [[["conv_dw_11_relu", 0, 0, {}]]], "name": "conv_pw_11"}, {"config": {"trainable": true, "gamma_constraint": null, "center": true, "moving_variance_initializer": {"config": {}, "class_name": "Ones"}, "beta_regularizer": null, "gamma_initializer": {"config": {}, "class_name": "Ones"}, "beta_constraint": null, "name": "conv_pw_11_bn", "beta_initializer": {"config": {}, "class_name": "Zeros"}, "scale": true, "momentum": 0.99, "axis": -1, "epsilon": 0.001, "gamma_regularizer": null, "moving_mean_initializer": {"config": {}, "class_name": "Zeros"}}, "class_name": "BatchNormalization", "inbound_nodes": [[["conv_pw_11", 0, 0, {}]]], "name": "conv_pw_11_bn"}, {"config": {"trainable": true, "activation": "relu6", "name": "conv_pw_11_relu"}, "class_name": "Activation", "inbound_nodes": [[["conv_pw_11_bn", 0, 0, {}]]], "name": "conv_pw_11_relu"}, {"config": {"trainable": true, "kernel_size": [3, 3], "dilation_rate": [1, 1], "bias_initializer": {"config": {}, "class_name": "Zeros"}, "bias_regularizer": null, "bias_constraint": null, "padding": "same", "name": "conv_dw_12", "use_bias": false, "activation": "linear", "depthwise_constraint": null, "data_format": "channels_last", "depth_multiplier": 1, "activity_regularizer": null, "strides": [2, 2], "depthwise_regularizer": null, "depthwise_initializer": {"config": {"scale": 1.0, "distribution": "uniform", "seed": null, "mode": "fan_avg"}, "class_name": "VarianceScaling"}}, "class_name": "DepthwiseConv2D", "inbound_nodes": [[["conv_pw_11_relu", 0, 0, {}]]], "name": "conv_dw_12"}, {"config": {"trainable": true, "gamma_constraint": null, "center": true, "moving_variance_initializer": {"config": {}, "class_name": "Ones"}, "beta_regularizer": null, "gamma_initializer": {"config": {}, "class_name": "Ones"}, "beta_constraint": null, "name": "conv_dw_12_bn", "beta_initializer": {"config": {}, "class_name": "Zeros"}, "scale": true, "momentum": 0.99, "axis": -1, "epsilon": 0.001, "gamma_regularizer": null, "moving_mean_initializer": {"config": {}, "class_name": "Zeros"}}, "class_name": "BatchNormalization", "inbound_nodes": [[["conv_dw_12", 0, 0, {}]]], "name": "conv_dw_12_bn"}, {"config": {"trainable": true, "activation": "relu6", "name": "conv_dw_12_relu"}, "class_name": "Activation", "inbound_nodes": [[["conv_dw_12_bn", 0, 0, {}]]], "name": "conv_dw_12_relu"}, {"config": {"trainable": true, "kernel_constraint": null, "kernel_size": [1, 1], "filters": 1024, "dilation_rate": [1, 1], "bias_initializer": {"config": {}, "class_name": "Zeros"}, "bias_regularizer": null, "bias_constraint": null, "padding": "same", "name": "conv_pw_12", "use_bias": false, "data_format": "channels_last", "activity_regularizer": null, "strides": [1, 1], "kernel_initializer": {"config": {"scale": 1.0, "distribution": "uniform", "seed": null, "mode": "fan_avg"}, "class_name": "VarianceScaling"}, "activation": "linear", "kernel_regularizer": null}, "class_name": "Conv2D", "inbound_nodes": [[["conv_dw_12_relu", 0, 0, {}]]], "name": "conv_pw_12"}, {"config": {"trainable": true, "gamma_constraint": null, "center": true, "moving_variance_initializer": {"config": {}, "class_name": "Ones"}, "beta_regularizer": null, "gamma_initializer": {"config": {}, "class_name": "Ones"}, "beta_constraint": null, "name": "conv_pw_12_bn", "beta_initializer": {"config": {}, "class_name": "Zeros"}, "scale": true, "momentum": 0.99, "axis": -1, "epsilon": 0.001, "gamma_regularizer": null, "moving_mean_initializer": {"config": {}, "class_name": "Zeros"}}, "class_name": "BatchNormalization", "inbound_nodes": [[["conv_pw_12", 0, 0, {}]]], "name": "conv_pw_12_bn"}, {"config": {"trainable": true, "activation": "relu6", "name": "conv_pw_12_relu"}, "class_name": "Activation", "inbound_nodes": [[["conv_pw_12_bn", 0, 0, {}]]], "name": "conv_pw_12_relu"}, {"config": {"trainable": true, "kernel_size": [3, 3], "dilation_rate": [1, 1], "bias_initializer": {"config": {}, "class_name": "Zeros"}, "bias_regularizer": null, "bias_constraint": null, "padding": "same", "name": "conv_dw_13", "use_bias": false, "activation": "linear", "depthwise_constraint": null, "data_format": "channels_last", "depth_multiplier": 1, "activity_regularizer": null, "strides": [1, 1], "depthwise_regularizer": null, "depthwise_initializer": {"config": {"scale": 1.0, "distribution": "uniform", "seed": null, "mode": "fan_avg"}, "class_name": "VarianceScaling"}}, "class_name": "DepthwiseConv2D", "inbound_nodes": [[["conv_pw_12_relu", 0, 0, {}]]], "name": "conv_dw_13"}, {"config": {"trainable": true, "gamma_constraint": null, "center": true, "moving_variance_initializer": {"config": {}, "class_name": "Ones"}, "beta_regularizer": null, "gamma_initializer": {"config": {}, "class_name": "Ones"}, "beta_constraint": null, "name": "conv_dw_13_bn", "beta_initializer": {"config": {}, "class_name": "Zeros"}, "scale": true, "momentum": 0.99, "axis": -1, "epsilon": 0.001, "gamma_regularizer": null, "moving_mean_initializer": {"config": {}, "class_name": "Zeros"}}, "class_name": "BatchNormalization", "inbound_nodes": [[["conv_dw_13", 0, 0, {}]]], "name": "conv_dw_13_bn"}, {"config": {"trainable": true, "activation": "relu6", "name": "conv_dw_13_relu"}, "class_name": "Activation", "inbound_nodes": [[["conv_dw_13_bn", 0, 0, {}]]], "name": "conv_dw_13_relu"}, {"config": {"trainable": true, "kernel_constraint": null, "kernel_size": [1, 1], "filters": 1024, "dilation_rate": [1, 1], "bias_initializer": {"config": {}, "class_name": "Zeros"}, "bias_regularizer": null, "bias_constraint": null, "padding": "same", "name": "conv_pw_13", "use_bias": false, "data_format": "channels_last", "activity_regularizer": null, "strides": [1, 1], "kernel_initializer": {"config": {"scale": 1.0, "distribution": "uniform", "seed": null, "mode": "fan_avg"}, "class_name": "VarianceScaling"}, "activation": "linear", "kernel_regularizer": null}, "class_name": "Conv2D", "inbound_nodes": [[["conv_dw_13_relu", 0, 0, {}]]], "name": "conv_pw_13"}, {"config": {"trainable": true, "gamma_constraint": null, "center": true, "moving_variance_initializer": {"config": {}, "class_name": "Ones"}, "beta_regularizer": null, "gamma_initializer": {"config": {}, "class_name": "Ones"}, "beta_constraint": null, "name": "conv_pw_13_bn", "beta_initializer": {"config": {}, "class_name": "Zeros"}, "scale": true, "momentum": 0.99, "axis": -1, "epsilon": 0.001, "gamma_regularizer": null, "moving_mean_initializer": {"config": {}, "class_name": "Zeros"}}, "class_name": "BatchNormalization", "inbound_nodes": [[["conv_pw_13", 0, 0, {}]]], "name": "conv_pw_13_bn"}, {"config": {"trainable": true, "activation": "relu6", "name": "conv_pw_13_relu"}, "class_name": "Activation", "inbound_nodes": [[["conv_pw_13_bn", 0, 0, {}]]], "name": "conv_pw_13_relu"}, {"config": {"trainable": true, "data_format": "channels_last", "name": "global_average_pooling2d_1"}, "class_name": "GlobalAveragePooling2D", "inbound_nodes": [[["conv_pw_13_relu", 0, 0, {}]]], "name": "global_average_pooling2d_1"}, {"config": {"trainable": true, "name": "reshape_1", "target_shape": [1, 1, 1024]}, "class_name": "Reshape", "inbound_nodes": [[["global_average_pooling2d_1", 0, 0, {}]]], "name": "reshape_1"}, {"config": {"trainable": true, "seed": null, "rate": 0.6, "name": "dropout", "noise_shape": null}, "class_name": "Dropout", "inbound_nodes": [[["reshape_1", 0, 0, {}]]], "name": "dropout"}, {"config": {"trainable": true, "kernel_constraint": null, "kernel_size": [1, 1], "filters": 1000, "dilation_rate": [1, 1], "bias_initializer": {"config": {}, "class_name": "Zeros"}, "bias_regularizer": null, "bias_constraint": null, "padding": "same", "name": "conv_preds", "use_bias": true, "data_format": "channels_last", "activity_regularizer": null, "strides": [1, 1], "kernel_initializer": {"config": {"scale": 1.0, "distribution": "uniform", "seed": null, "mode": "fan_avg"}, "class_name": "VarianceScaling"}, "activation": "linear", "kernel_regularizer": null}, "class_name": "Conv2D", "inbound_nodes": [[["dropout", 0, 0, {}]]], "name": "conv_preds"}, {"config": {"trainable": true, "activation": "softmax", "name": "act_softmax"}, "class_name": "Activation", "inbound_nodes": [[["conv_preds", 0, 0, {}]]], "name": "act_softmax"}, {"config": {"trainable": true, "name": "reshape_2", "target_shape": [1000]}, "class_name": "Reshape", "inbound_nodes": [[["act_softmax", 0, 0, {}]]], "name": "reshape_2"}, {"config": {"trainable": true, "kernel_constraint": null, "use_bias": true, "bias_initializer": {"config": {}, "class_name": "Zeros"}, "bias_regularizer": {"config": {"l1": 0.0, "l2": 0.009999999776482582}, "class_name": "L1L2"}, "bias_constraint": null, "name": "1000fc", "units": 1000, "activity_regularizer": null, "kernel_initializer": {"config": {"scale": 1.0, "distribution": "uniform", "seed": null, "mode": "fan_avg"}, "class_name": "VarianceScaling"}, "activation": "relu", "kernel_regularizer": null}, "class_name": "Dense", "inbound_nodes": [[["reshape_2", 0, 0, {}]]], "name": "1000fc"}, {"config": {"trainable": true, "seed": null, "rate": 0.2, "name": "Dropout_1", "noise_shape": null}, "class_name": "Dropout", "inbound_nodes": [[["1000fc", 0, 0, {}]]], "name": "Dropout_1"}, {"config": {"trainable": true, "kernel_constraint": null, "use_bias": true, "bias_initializer": {"config": {}, "class_name": "Zeros"}, "bias_regularizer": null, "bias_constraint": null, "name": "dense_1", "units": 4, "activity_regularizer": null, "kernel_initializer": {"config": {"scale": 1.0, "distribution": "uniform", "seed": null, "mode": "fan_avg"}, "class_name": "VarianceScaling"}, "activation": "softmax", "kernel_regularizer": null}, "class_name": "Dense", "inbound_nodes": [[["Dropout_1", 0, 0, {}]]], "name": "dense_1"}], "name": "model_1"}, "class_name": "Model", "backend": "tensorflow", "keras_version": "2.1.2"}